…
  \"metadata\": {},\n     \"output_type\": \"execute_result\"\n    }\n   ],\n   \"source\": [\n    \"images.shape\"\n   ]\n  },\n  {\n   \"cell_type\": \"code\",\n   \"execution_count\": 5,\n   \"metadata\": {},\n   \"outputs\": [\n    {\n     \"name\": \"stdout\",\n     \"output_type\": \"stream\",\n     \"text\": [\n      \"_________________________________________________________________\\n\",\n      \"Layer (type)                 Output Shape              Param #   \\n\",\n      \"=================================================================\\n\",\n      \"conv2d_1 (Conv2D)            (None, 62, 62, 32)        896       \\n\",\n      \"_________________________________________________________________\\n\",\n      \"max_pooling2d_1 (MaxPooling2 (None, 31, 31, 32)        0         \\n\",\n      \"_________________________________________________________________\\n\",\n      \"permute_1 (Permute)          (None, 32, 31, 31)        0         \\n\",\n      \"_________________________________________________________________\\n\",\n      \"reshape_1 (Reshape)          (None, 4, 7688)           0         \\n\",\n      \"_________________________________________________________________\\n\",\n      \"lstm_1 (LSTM)                (None, 64)                1984768   \\n\",\n      \"_________________________________________________________________\\n\",\n      \"dense_1 (Dense)              (None, 3)                 195       \\n\",\n      \"=================================================================\\n\",\n      \"Total params: 1,985,859\\n\",\n      \"Trainable params: 1,985,859\\n\",\n      \"Non-trainable params: 0\\n\",\n      \"_________________________________________________________________\\n\"\n     ]\n    }\n   ],\n   \"source\": [\n    \"from keras.layers import Permute, Reshape\\n\",\n    \"\\
…
 ],\n   \"source\": [\n    \"y_train = labels.as_matrix(columns=labels.columns[1: -1])\\n\",\n    \"y_train.shape\"\n   ]\n  },\n  {\n   \"cell_type\": \"code\",\n   \"execution_count\": 4,\n   \"metadata\": {},\n   \"outputs\": [\n    {\n     \"name\": \"stdout\",\n     \"output_type\": \"stream\",\n     \"text\": [\n      \"_________________________________________________________________\\n\",\n      \"Layer (type)                 Output Shape              Param #   \\n\",\n      \"=================================================================\\n\",\n      \"conv2d_1 (Conv2D)            (None, 62, 62, 32)        3488      \\n\",\n      \"_________________________________________________________________\\n\",\n      \"conv2d_2 (Conv2D)            (None, 60, 60, 32)        9248      \\n\",\n      \"_________________________________________________________________\\n\",\n      \"max_pooling2d_1 (MaxPooling2 (None, 30, 30, 32)        0         \\n\",\n      \"_________________________________________________________________\\n\",\n      \"conv2d_3 (Conv2D)            (None, 28, 28, 32)        9248      \\n\",\n      \"_________________________________________________________________\\n\",\n      \"conv2d_4 (Conv2D)            (None, 26, 26, 32)        9248      \\n\",\n      \"_________________________________________________________________\\n\",\n      \"max_pooling2d_2 (MaxPooling2 (None, 13, 13, 32)        0         \\n\",\n      \"_________________________________________________________________\\n\",\n      \"conv2d_5 (Conv2D)            (None, 11, 11, 32)        9248      \\n\",\n      \"_________________________________________________________________\\n\",\n      \"flatten_1 (Flatten)          (None, 3872)              0         \\n\",\n      \"_________________________________________________________________\\n\",\n      \"dense_1 (Dense)              (None, 3)                 11619     \\n\",\n      \"=================================================================\\n\",\n      \"Total params: 52,099\\n\",\n      \"Trainable params: 52,099\\n\",\n      \"Non-trainable params: 0\\n\",\n      \"_________________________________________________________________\\n\"\n     ]\n    }\n   ],\n   \"source\": [\n    \"def create_model():\\n\",\n    \"    model = Sequential()\\n\",\n
…
